…
>>> model.add(layers.Conv2D(filters=256, kernel_size=3, padding='same', activation=activation_fn))
>>> model.add(layers.MaxPooling2D(pool_size=2, strides=2, padding='same'))
>>> model.add(layers.Flatten())
>>> model_shape = model.output_shape[1]
>>> model.add(layers.Dense(model_shape, activation='relu'))
>>> model.add(layers.Dense(512, activation='relu'))
>>> model.add(layers.Dense(5, activation='softmax'))
>>> model.summary()
_________________________________________________________________
Layer (type)                 Output Shape              Param #   
=================================================================
conv2d_1 (Conv2D)            (None, 15, 15, 96)        11712     
_________________________________________________________________
max_pooling2d_1 (MaxPooling2 (None, 8, 8, 96)          0         
_________________________________________________________________
conv2d_2 (Conv2D)            (None, 8, 8, 265)         636265    
_________________________________________________________________
max_pooling2d_2 (MaxPooling2 (None, 4, 4, 265)         0         
_________________________________________________________________
conv2d_3 (Conv2D)            (None, 4, 4, 384)         916224    
_________________________________________________________________
conv2d_4 (Conv2D)            (None, 4, 4, 384)         1327488   
_________________________________________________________________
conv2d_5 (Conv2D)            (None, 4, 4, 256)         884992    
_________________________________________________________________
max_pooling2d_3 (MaxPooling2 (None, 2, 2, 256)         0         
_________________________________________________________________
flatten_1 (Flatten)          (None, 1024)              0         
_________________________________________________________________
dense_1 (Dense)              (None, 1024)              1049600   
_________________________________________________________________
dense_2 (Dense)              (None, 512)               524800    
_________________________________________________________________
dense_3 (Dense)              (None, 5)                 2565      
=================================================================
Total params: 5,353,646
Trainable params: 5,353,646
Non-trainable params: 0
_________________________________________________________________
>>> model.compile(optimizer='adam', loss='sparse_categorical_crossentropy', metrics=['accuracy'])
>>> model.fit(images_train, solutions_train, epochs=5)
Traceback (most recent call last):
…
...     model.compile(optimizer='adam', loss='sparse_categorical_crossentropy', metrics=['accuracy'])
...     model.fit(images_train, solutions_train, epochs=5)
...                     
...     return model
... 
>>> for activation_fn in activation_fns:
...     for n_layers in n_layer_possibilities:
...         loss, acc, runtime = CNN_performance(activation_fn, n_layers)
...         information_for_plots.append([activation_fn, n_layers, loss, acc, runtime])
... 
_________________________________________________________________
Layer (type)                 Output Shape              Param #   
=================================================================
conv2d_4 (Conv2D)            (None, 15, 15, 96)        11712     
_________________________________________________________________
max_pooling2d_4 (MaxPooling2 (None, 8, 8, 96)          0         
_________________________________________________________________
conv2d_5 (Conv2D)            (None, 8, 8, 265)         636265    
_________________________________________________________________
max_pooling2d_5 (MaxPooling2 (None, 4, 4, 265)         0         
_________________________________________________________________
conv2d_6 (Conv2D)            (None, 4, 4, 256)         610816    
_________________________________________________________________
max_pooling2d_6 (MaxPooling2 (None, 1, 1, 256)         0         
_________________________________________________________________
flatten_2 (Flatten)          (None, 256)               0         
_________________________________________________________________
dense_1 (Dense)              (None, 256)               65792     
_________________________________________________________________
dense_2 (Dense)              (None, 512)               131584    
_________________________________________________________________
dense_3 (Dense)              (None, 5)                 2565      
=================================================================
Total params: 1,458,734
Trainable params: 1,458,734
Non-trainable params: 0
_________________________________________________________________
WARNING:tensorflow:From /home/s1630784/env/lib/python3.4/site-packages/tensorflow/python/ops/math_ops.py:3066: to_int32 (from tensorflow.python.ops.math_ops) is deprecated and will be removed in a future version.
…
2800/2800 [==============================] - 4s 1ms/step - loss: 1.0057 - acc: 0.5996
Epoch 3/5
2800/2800 [==============================] - 4s 1ms/step - loss: 0.9865 - acc: 0.5996
Epoch 4/5
2800/2800 [==============================] - 4s 1ms/step - loss: 0.9628 - acc: 0.6014
Epoch 5/5
2800/2800 [==============================] - 4s 1ms/step - loss: 0.9061 - acc: 0.6121
1200/1200 [==============================] - 1s 558us/step
_________________________________________________________________
Layer (type)                 Output Shape              Param #   
=================================================================
conv2d_25 (Conv2D)           (None, 15, 15, 96)        11712     
_________________________________________________________________
max_pooling2d_25 (MaxPooling (None, 8, 8, 96)          0         
_________________________________________________________________
conv2d_26 (Conv2D)           (None, 8, 8, 265)         636265    
_________________________________________________________________
max_pooling2d_26 (MaxPooling (None, 4, 4, 265)         0         
_________________________________________________________________
conv2d_27 (Conv2D)           (None, 4, 4, 384)         916224    
_________________________________________________________________
conv2d_28 (Conv2D)           (None, 4, 4, 256)         884992    
_________________________________________________________________
max_pooling2d_27 (MaxPooling (None, 1, 1, 256)         0         
_________________________________________________________________
flatten_9 (Flatten)          (None, 256)               0         
_________________________________________________________________
dense_22 (Dense)             (None, 256)               65792     
_________________________________________________________________
dense_23 (Dense)             (None, 512)               131584    
_________________________________________________________________
dense_24 (Dense)             (None, 5)                 2565      
=================================================================
Total params: 2,649,134
Trainable params: 2,649,134
Non-trainable params: 0
_________________________________________________________________
Epoch 1/5
2800/2800 [==============================] - 6s 2ms/step - loss: 1.0900 - acc: 0.5886  
Epoch 2/5
2800/2800 [==============================] - 5s 2ms/step - loss: 1.0110 - acc: 0.5996
Epoch 3/5
2800/2800 [==============================] - 5s 2ms/step - loss: 1.0060 - acc: 0.5996
Epoch 4/5
2800/2800 [==============================] - 5s 2ms/step - loss: 0.9831 - acc: 0.5996
Epoch 5/5
2800/2800 [==============================] - 5s 2ms/step - loss: 0.9798 - acc: 0.5968
1200/1200 [==============================] - 1s 732us/step
_________________________________________________________________
Layer (type)                 Output Shape              Param #   
=================================================================
conv2d_29 (Conv2D)           (None, 15, 15, 96)        11712     
_________________________________________________________________
max_pooling2d_28 (MaxPooling (None, 8, 8, 96)          0         
_________________________________________________________________
conv2d_30 (Conv2D)           (None, 8, 8, 265)         636265    
_________________________________________________________________
max_pooling2d_29 (MaxPooling (None, 4, 4, 265)         0         
_________________________________________________________________
conv2d_31 (Conv2D)           (None, 4, 4, 384)         916224    
_________________________________________________________________
conv2d_32 (Conv2D)           (None, 4, 4, 384)         1327488   
_________________________________________________________________
conv2d_33 (Conv2D)           (None, 4, 4, 384)         1327488   
_________________________________________________________________
conv2d_34 (Conv2D)           (None, 4, 4, 256)         884992    
_________________________________________________________________
max_pooling2d_30 (MaxPooling (None, 1, 1, 256)         0         
_________________________________________________________________
flatten_10 (Flatten)         (None, 256)               0         
_________________________________________________________________
dense_25 (Dense)             (None, 256)               65792     
_________________________________________________________________
dense_26 (Dense)             (None, 512)               131584    
_________________________________________________________________
dense_27 (Dense)             (None, 5)                 2565      
=================================================================
Total params: 5,304,110
Trainable params: 5,304,110
Non-trainable params: 0
_________________________________________________________________
Epoch 1/5
2800/2800 [==============================] - 11s 4ms/step - loss: 6.3946 - acc: 0.5996
Epoch 2/5
2800/2800 [==============================] - 9s 3ms/step - loss: 6.4530 - acc: 0.5996
…
